convolution/models/01_pytorch_mnist_cnn.pth (torch, 118602 bytes, 6 tensors)

conv1.0.weight f4 [16, 1, 5, 5]
00000000: 138c 28be 585a 8ebf 8b43 9cbe bae0 4dbf
00000010: 215a 13bf 1271 70be 4a09 07bf 6f95 15bf
00000020: 802d f2be 4fb6 37bf 234d 2b3e 0f52 383f
00000030: 9929 253f 7196 2b3d 8ee4 50bf 7289 2e3e
00000040: 8826 3f3e 5195 283e a544 8b3e 3a17 adbe
00000050: 75b7 33bf 3f19 f4bf b1b0 92bf bac8 0abd
00000060: b4cd 58be ef7b 5dbf 0cf4 813f 10bb e83e
00000070: 257e 4ebf 2149 b93d 8554 f83e aaa5 81bf
00000080: 0d64 70bf 71e8 1f3b b21f 99bf 0bfb b4bf
00000090: 0e4b abbf f279 71bf b5cf 30bf 7147 eabf
000000a0: 64bb bfbf faea ce3e b82b 413f 3fd8 8b3e
000000b0: a9e8 82bf 2397 02c0 0f6a 883e 380b 1d3f
000000c0: f32d 69be fc90 9bbe 3d63 963c 200f 74be
000000d0: 8c57 833d 4c56 e53e 0cd7 ce3e 443d 8c3e
000000e0: a89a 40be 8863 2cbf 33ed 8ebe b222 6a3e
000000f0: b548 193f 4e7f 19be 78bb 9abf 967c b2be
00000100: 98ed 14bd fba2 163f 7f9e 8c3e 79e9 8cbe
00000110: 2989 9f3d d58d 043d be19 553e f463 7f3e
00000120: 666e 143f 8c8d a73e 1ec7 33bd 51b5 973e
00000130: 712e 8c3e 37d5 473d e765 cabe 8636 78bf
00000140: 3594 f5bd f70e a63d 5d62 363c 8d36 e7bd
00000150: 0b58 9abf abd4 a5be 6102 d03e b62d e43e
00000160: 9b84 31be e317 d0bf d6e5 08bf a53b 053f
00000170: 6375 1f3e 2310 bfbf 6163 9fbe db2e 01be
00000180: 47a9 253e a6ae b6be 947c b5bf 351f a43a
00000190: 5ffc 64bf e1b8 d3be d8ae a13c 2fa7 f6be
000001a0: b62a e7be 8e1f 84bf b496 f7be 04b6 463e
000001b0: ef51 88bd 1773 bd3d 27c2 213e 2503 423f
000001c0: 10fa 673e 1ac7 473e 7b76 21be f261 233f
000001d0: 90c2 983e 4891 0abf 9d5a babe 7893 52be
000001e0: 9e5d 87bf 841b 28bf 9027 54bf 386e 06bd
000001f0: 5231 13bd 3ba8 08bf db03 593e d0cd a93e
00000200: 6a6d ae3e 02e8 c43e 3ede 8dbf 760c ae3e
00000210: 6137 c33d dfd9 973e 814f 36bf 120b d0bf
00000220: 58c7 a3be a662 353f 927b c1be 4c5d afbf
00000230: f793 3dbf a6da 26bf 9f38 9dbf 53f1 e6bf
00000240: 46a2 3e3e 3bce 5cbf 9b24 d8bf 1be6 a8bf
00000250: 3bbc fa3e cbd8 4a3f 0d28 db3d c737 78bc
00000260: 83b3 d6be d44e 963d fe47 2c3f 5af7 f83e
00000270: 6411 2a3f b5c9 8c3e dc8d a03d aa20 713e
00000280: 712b d8be 2f0a 0ebe 38c8 e63e bc39 173d
00000290: 353c 3dbf 9857 56bf 1aaf 82bf afe2 65bf
000002a0: b80c b5be 5523 16bf b5b8 bf3e 5966 22be
000002b0: 3ca5 443e 2bdb 4e3e c453 c03d ccbe 8a3c
000002c0: 1de8 a7be 4ff3 7c3e 7df1 b2be 9410 03bf
000002d0: 2846 42bf 2a5d 3abf 5020 7dbe 842f e4be
000002e0: c762 40bf 897d 833e 1618 51bf 9583 c0be
000002f0: 5fed 57be 17f0 aabe 6669 313f c7ec aebe
00000300: a062 c1bf 0d12 4abf 32f0 01be ac6f b13e
00000310: 36b5 823c bb8a 13bf 2b0f 3abf 3515 49bf
00000320: 134e dabe 2b6d 96be 58e2 203d ee61 f13b
00000330: f71d 463f 19f9 69bf 4622 8cbe 07db e1bd
00000340: d006 f5be 112b a43e 1b8d a3be 58f7 5dbf
00000350: ed9a 83bf 0a0f 8abf 3473 fbbd e804 a0bb
00000360: 03f8 e43c 3ea7 6dbd dd1a 33bf a96d 4abf
00000370: a6d2 6abd 3f21 043f 06c4 b83d 4a07 d93e
00000380: 2310 073e 2fd5 e03e 138b 2bbe 6ac4 ad3d
00000390: cff1 6a3d f935 35bd 811e bebe d3b7 6dbd
000003a0: 8c09 5fbe 89d0 85be 1734 edbe bd13 abbf
000003b0: 1796 28bc fbde 1e3d abf7 51bf 1fb7 9ebf
000003c0: 8843 a5be e0bf 6abf b5de 9abe 3a04 7fbf
000003d0: c76b 1ebf 57df 97bf ddd5 17bf 3fd9 72bf
000003e0: b3b3 0ebf 66c4 babe 3264 11bf c7c9 a83e
000003f0: b767 a53e d360 2a3e 7cb0 6dbe ddca 02bf
-0.16459684 -1.1121321 -0.3052028 -0.8042103 -0.575594 -0.23480633 -0.5274855 -0.5843114
-0.4730034 -0.71762556 0.16728644 0.7200021 0.645166 0.04189152 -0.81598747 0.17044619
0.18667042 0.1646321 0.2720081 -0.33806783 -0.7020181 -1.9070204 -1.1460172 -0.033882834
-0.2117222 -0.8651723 1.0152602 0.45455217 -0.8066123 0.09047151 0.48501983 -1.0128682
-0.93902665 0.002440002 -1.1962798 -1.4139112 -1.338228 -0.943267 -0.69066936 -1.8303052
-1.4979062 0.40413648 0.75457335 0.2731342 -1.0227252 -2.0404747 0.26643416 0.61345243
-0.22771434 -0.30384052 0.018357867 -0.23833895 0.064131826 0.44792402 0.40398443 0.27390492
-0.18808997 -0.6733937 -0.27915344 0.22864798 0.5987657 -0.14989969 -1.2088461 -0.34860677
-0.0363594 0.5884244 0.27464673 -0.27521876 0.07789833 0.032361824 0.20810601 0.24940473
0.57980955 0.3272518 -0.043891065 0.2963052 0.27379182 0.048787322 -0.3953087 -0.96958196
-0.11991159 0.08108323 0.01113185 -0.112897016 -1.2058119 -0.32388815 0.40626815 0.44566125
-0.17335741 -1.625729 -0.534757 0.52044135 0.15572123 -1.49268 -0.31130508 -0.1261553
0.16177855 -0.3568012 -1.4178643 0.0012521507 -0.8944759 -0.4135199 0.019736692 -0.48174426
-0.45149773 -1.032213 -0.48357165 0.19405371 -0.066562526 0.09250467 0.1579672 0.7578605
0.22653985 0.19509545 -0.15767853 0.6382133 0.2983594 -0.5412793 -0.36397257 -0.20564067
-1.0575445 -0.65666986 -0.8287287 -0.032819957 -0.035935707 -0.533817 0.21192877 0.33164835
0.3406785 0.38458258 -1.1083448 0.33993882 0.09532047 0.2965841 -0.71215063 -1.6253378
-0.31988025 0.7085365 -0.3778959 -1.3700347 -0.740539 -0.6517738 -1.2282904 -1.8042396
0.1861659 -0.8625218 -1.6886171 -1.3195223 0.48971733 0.7923705 0.107009985 -0.015150017
-0.41933832 0.07339254 0.6729735 0.48626214 0.66432786 0.2749764 0.078395575 0.23547617
-0.42220643 -0.13871072 0.4507463 0.036920294 -0.73919994 -0.8372741 -1.0209687 -0.89799017
-0.35361266 -0.5864766 0.37445608 -0.15859355 0.19203657 0.20200793 0.09390977 0.016936682
-0.32794276 0.2470219 -0.34949866 -0.5119717 -0.758883 -0.7279841 -0.24719357 -0.44567502
-0.7515072 0.25681713 -0.8167738 -0.3760039 -0.21086644 -0.333863 0.6930145 -0.34165022
-1.5108223 -0.78933793 -0.12689283 0.3465551 0.015955549 -0.5763356 -0.72679394 -0.78547984
-0.4263769 -0.29380164 0.03927836 0.0073664105 0.7738947 -0.9139572 -0.273699 -0.11028104
-0.4785676 0.32064107 -0.31943592 -0.8670554 -1.0281655 -1.078584 -0.122778326 -0.0048833974
0.027950292 -0.058020823 -0.69962865 -0.7907358 -0.057329796 0.5161323 0.090217635 0.42388374
0.1318975 0.43912646 -0.16752271 0.08484729 0.057359513 -0.044240925 -0.37132648 -0.058036637
-0.21780986 -0.26135662 -0.46328804 -1.3365399 -0.01028969 0.03878687 -0.82018536 -1.2399634
-0.32278085 -0.9169903 -0.30248037 -0.99615824 -0.61883205 -1.1865033 -0.59310704 -0.9486274
-0.5574295 -0.36477965 -0.5679351 0.32966444 0.3230569 0.16638498 -0.23211855 -0.51090795

conv1.0.bias f4 [16]
00000000: 6b60 d4be c038 9fbd 3466 8dbf 6f18 68be
00000010: 75d2 34be f570 03bf 0908 10bf 5757 53be
00000020: ef71 a3be e4ac a73d 028b c5be f750 05bf
00000030: 38d4 d5be acd2 5bbf a7d1 65be b3a6 0fbe
-0.4147981 -0.07774496 -1.1046815 -0.2266557 -0.17658408 -0.51344234 -0.5626226 -0.20638786
-0.31922862 0.08187273 -0.38582617 -0.5207667 -0.41763473 -0.85868335 -0.22443257 -0.14028434

conv2.0.weight f4 [32, 16, 5, 5]
00000000: 61c3 5cbf 75ae d73e 757b 8f3d 02e9 91bd
00000010: 55a4 f63e 380d ac3d 63b6 783e 7411 51be
00000020: bca5 62be b763 003f e642 45bf 2d27 06be
00000030: 2f06 4bbd 4496 2cbf 8e9a f6ba 6e4d 21be
00000040: e5b6 393e be92 6fbe 9228 29be e442 113d
00000050: e97f 6b3e d956 cabe 1d37 63bf ed36 17bf
00000060: cf1c aebd 1f53 9d3d b530 5fbf 4c74 58bf
00000070: 3451 0c3f 229d 3abf d6b4 1a3d 2ecc 4fbe
00000080: 3c9a 2c3e c85f 3a3f 0492 503f 7346 4f3f
00000090: 0964 17bf 6e96 0b3f 8521 503d 85f0 71bf
000000a0: 2d50 e33e bf4d 39be f0b0 a6bf 7b85 43bc
000000b0: 1867 8abf d663 67be fa70 6ebf 34e5 20bf
000000c0: 13b8 e6be a51f 4cbf 0737 773f 8ade b33e
000000d0: 47b2 0ebf a768 13bd 3041 40bf 0b1a 83bf
000000e0: 0a27 2bbd 5eeb b0be 9bc6 2abf 7ef3 85ba
000000f0: 6d2f 743f c286 69bf b559 c9bf b6a1 a7bf
00000100: 5f96 bbbe 5993 87be b729 493e 0736 903e
00000110: 7d14 c43d b184 003e 5a9b adbd 6dc6 c1be
00000120: 8c4a 983e 654e 273f b1a3 a73e 9755 89be
00000130: c45a c0be e6e7 49bf 2188 81bf 0239 14bf
00000140: fa52 2cbd 3950 0a3f 4de9 423e e04f 22bf
00000150: 9c1b debf a49a 9abd 8eb1 2b3f 0612 d13e
00000160: 6e87 9bbf 15c1 debf d3a6 00bf a82a 4abf
00000170: f9cd 13bf 274c 9abf ed00 e1bf c020 eabc
00000180: 5455 83bf 11c7 08bf fa7b 08bf ca99 d4bf
00000190: 6577 6bbf 6bad 9cbe 6867 4e3f a1b3 4c3f
000001a0: 0ec8 9a3f 7c18 ddbe 70c9 833e 0077 803e
000001b0: d062 bf3e 00d5 f03d 3edd 73bf 64fc 87be
000001c0: 64e4 f13d abac 1fbf 4bf6 093f c993 8a3e
000001d0: 698c b2be 9926 4ebf 77bb ac3e e07f 6a3f
000001e0: 233d 65be c41f 52bf 6d2a 1cbf 3d00 55bf
000001f0: e253 a9bf 5745 343f ea8a a43f 1293 3ebe
00000200: bdde 133f b2d2 b73f fa64 843e 6710 a4bf
00000210: d3dd 3d3e cafc 8b3e fab3 003d df39 1d3d
00000220: a977 343d 6776 963e e371 3fbf 3fd8 2ebf
00000230: 187a e9bd 8d8c 09bf adcf a5bd c556 a03e
00000240: 8d51 fe3e 5355 32be a5ce e73e 8c34 a3be
00000250: e52f 563e 9081 a23e 6c06 5fbe c49a 7d3e
00000260: 1434 393e dc87 893e 45a1 913c a381 c73d
00000270: bc54 7abc 8c0e 60be 4334 b3bc 0dd7 dabe
00000280: d50a 723e e58b c33d f18c 693d 40bd 1cbf
00000290: 9e1e 3cbf e052 6ebf 8461 fdbe ea50 4d3e
000002a0: 21ec d03e 6015 023f 2590 ec3d ac7f 8e3e
000002b0: 2812 b23d 92d8 9f3e e6b7 adbf e54a 193f
000002c0: 02d2 b43d e97a 4e3f 77e5 b63e fb39 6c3f
000002d0: 8b70 69bf 825c c33f 78c3 f93e afd1 a3be
000002e0: fba9 08bd b896 81bf 9cdd 45bf d1a5 a8be
000002f0: c04d 63be 77b6 0abf 8e17 493d 9c6b 6ebe
00000300: f3bb 0b3d 72fb 883b 71b9 08bf 4234 6ebe
00000310: cbf3 ccbe 3d9b 47bf 1367 f9be fd83 a6bf
00000320: 82c0 75be 31b3 273e c710 d3bd 88e5 f2be
00000330: 3fb8 4dbf 8937 063f 1c2a b0bc cde3 37bf
00000340: 3767 6dbf 8d55 67bf 60bc c03e 355d 513e
00000350: bc21 13be f5c9 b1bc 8f67 a1bf baa5 ba3e
00000360: fa51 d63e 7082 b53e 44b6 983e b321 f03e
00000370: f6b8 973e 19ac f53e f03b a83d f718 9abe
00000380: 4f20 03bf 1a08 133f 0926 eebe 6753 67bf
00000390: c7d6 9abe 06ca 07be 628d 7dbe fa25 0abf
000003a0: 030e 01bf e4be 14be b30c 61be 0ab1 25be
000003b0: a139 1b3f ff91 463d 8c80 50bf 9a48 9fbf
000003c0: 0f75 a43e 14a2 a13e 201d 533d b03c 543e
000003d0: 1589 8cbd acd3 1a3f ea52 47be c23f fa3e
000003e0: e01e 513d d5a0 2fbf 4196 433f f9ee 83bf
000003f0: d0ad 86bf 959f f8bd 8245 f539 b5cf 0abf
-0.86235625 0.42125288 0.070059694 -0.07124521 0.4817225 0.08400959 0.24288325 -0.20416814
-0.22133535 0.5015215 -0.77055204 -0.13100882 -0.049566444 -0.6741679 -0.0018814371 -0.15752193
0.18136175 -0.23395821 -0.16519383 0.035464182 0.22998013 -0.39519385 -0.8875597 -0.59068185
-0.085015886 0.0768187 -0.87183696 -0.84552455 0.54811406 -0.72896016 0.037770115 -0.20292732
0.1685571 0.728024 0.814728 0.8096687 -0.59137017 0.5452641 0.050813217 -0.9450763
0.44397107 -0.18096064 -1.3022747 -0.01193368 -1.0812712 -0.22596678 -0.9314114 -0.62849736
-0.45062312 -0.79735786 0.9656834 0.3513072 -0.5574078 -0.035988476 -0.7509947 -1.0242323
-0.041785277 -0.3455457 -0.667093 -0.0010219661 0.95384866 -0.9122125 -1.5730501 -1.3096225
-0.36638162 -0.26479605 0.19644819 0.2816622 0.0957422 0.12550618 -0.084768966 -0.378467
0.29744375 0.65353996 0.32742074 -0.26823112 -0.3756925 -0.78869474 -1.0119668 -0.57899487
-0.04207132 0.5402866 0.1903431 -0.6340313 -1.7352176 -0.075490266 0.670678 0.40834063
-1.2150705 -1.7402674 -0.50254554 -0.7897134 -0.57736164 -1.205449 -1.7578408 -0.02858007
-1.0260415 -0.5342875 -0.53314173 -1.6609433 -0.91979057 -0.30601057 0.80626535 0.7996159
1.2092302 -0.43182743 0.25739622 0.2509079 0.37380075 0.117593765 -0.95259464 -0.26559746
0.1181114 -0.62372845 0.5389144 0.27065876 -0.3487275 -0.80527645 0.33736774 0.9160137
-0.22386603 -0.8207972 -0.61002237 -0.8320349 -1.3228724 0.70418304 1.2854893 -0.1861079
0.57761747 1.4361174 0.2585829 -1.2817506 0.1854165 0.273413 0.03142164 0.03838527
0.04405943 0.2938721 -0.7478315 -0.68298715 -0.11400241 -0.5373009 -0.08096252 0.313162
0.49671593 -0.17415361 0.45274845 -0.31876028 0.20916708 0.31739473 -0.21779794 0.2476607
0.18086272 0.26861465 0.017777095 0.09741523 -0.015278991 -0.21880549 -0.021875506 -0.42742196
0.23636945 0.09548167 0.057019178 -0.6122627 -0.7348422 -0.9309521 -0.4948846 0.20050398
0.40805152 0.50813866 0.11550931 0.2783178 0.08694869 0.31219918 -1.3571746 0.59879905
0.08829118 0.80656296 0.35721943 0.9227597 -0.9118735 1.5262606 0.48781943 -0.31995913
-0.03336523 -1.0124121 -0.77291274 -0.32939008 -0.22197628 -0.5418467 0.04909473 -0.23283237
0.03411479 0.0041803652 -0.5340796 -0.23262122 -0.4002975 -0.7797125 -0.48711452 -1.300903
-0.23999217 0.1637695 -0.103059344 -0.47440743 -0.8035926 0.5242849 -0.021504454 -0.7183197
-0.9273562 -0.90364915 0.3764372 0.20445712 -0.14368337 -0.021702746 -1.2609729 0.36454564
0.41859418 0.35451078 0.29826558 0.4690071 0.29633301 0.47982863 0.08214557 -0.30097172
-0.51221174 0.57434237 -0.46513394 -0.90361637 -0.30241987 -0.1326066 -0.24760965 -0.539642
-0.50412005 -0.14525944 -0.219775 -0.16180816 0.6063481 0.048479076 -0.81446147 -1.2444031
0.3212056 0.31568968 0.051541448 0.20726275 -0.06862084 0.60479236 -0.19465223 0.48876768
0.051054835 -0.68604785 0.76401144 -1.0307304 -1.0521793 -0.12139813 0.0004678183 -0.54223186

conv2.0.bias f4 [32]
00000000: 70ed 3ebf 6434 63bd d991 0dbf cd41 0abf
00000010: 83ec 37bf 1659 26bf d5e8 44bf 4608 e9be
00000020: 29a3 8abc a311 3bbf 2221 52bf 9518 f9be
00000030: 2637 b9be cbdf 78be afdb 95be cad6 2dbf
00000040: fc30 f8bd 9804 29bf 1c07 4cbf 5675 c8be
00000050: 943a f3be 2411 34be f478 cabd d660 f4be
00000060: bf6c 66be 50d2 c2be e1d4 7ebe 029a b9be
00000070: b6b0 153c e98c 6abd 7733 a4bd 501a 86be
-0.7458105 -0.055469885 -0.5530067 -0.54006654 -0.71845263 -0.64979684 -0.76917773 -0.45514125
-0.016923504 -0.73073786 -0.82081807 -0.48651567 -0.36174887 -0.2430412 -0.29269168 -0.6790587
-0.12118718 -0.66022635 -0.7969835 -0.3915202 -0.4750563 -0.17584664 -0.09886351 -0.4773013
-0.22502421 -0.3805108 -0.24885894 -0.3625031 0.009136369 -0.05726329 -0.08017629 -0.2619195

out.weight f4 [10, 1568]
00000000: d60a 103c 0243 a4bd ea4a 6cbe 9d90 fb3d
00000010: 7463 5a3e a715 2c3c 1012 23bd 33e2 35bf
00000020: a555 34bf 2a68 20bf 5401 36bf a37c 223b
00000030: a75d 92bd 409c 1dbf b37c 81be 2b3a efbe
00000040: 30c5 b9bf 5b2d cbbe 9a19 2abf 9d59 82bf
00000050: 0943 943e 04cd 87bf d0d3 52bf d118 71bf
00000060: a28e cdbe 4f0a 863f b2a2 993d 7cb5 e1be
00000070: 53fb c93d 16e9 5f3e dd60 233d 3a3c 8bbe
00000080: 5abb 61bd 3538 3dbf 91a4 cbbf 7857 f6be
00000090: 4c76 80bd ae9e 923a 1acf 423e a198 87be
000000a0: 77a9 4ebf 9a68 27bf 7a86 a2be 1e6a e7be
000000b0: 38cd f43e d847 c43d 390c 09bf 2204 46bf
000000c0: d720 72bf e4ed 27be 96d7 773e 27e0 cb3e
000000d0: 2272 fd3d 904a ffbe 970e bd3e a48b 79be
000000e0: 8e85 27bf b5d5 3bbf 8474 bcbe 6b46 bbbe
000000f0: 4f44 f33e 8de4 913f 51e1 a4bd 5379 2d3e
00000100: 8a2e 003f b9ef 0d3f 98e9 e33e ba8e 733e
00000110: 4e3e 063f 44a2 6a3f 3a74 4abd f210 873f
00000120: 1cc1 4a3f 7590 423c ff72 35bf cb88 643d
00000130: b425 19bf 3ae1 fb3c f7fa e53e ccb9 853d
00000140: f95a b6bf f996 6cbf 4a79 63bf 7914 2fbe
00000150: d5a9 d2bc 0079 bc3e a1fc 5bbf 0e77 8cbf
00000160: 19c1 69bf e2b8 8d3d 1456 053f ddd5 06be
00000170: 815e cb3c 70b5 65be b8f2 e4bd 6f99 bfbe
00000180: ba72 bc3d 693c 8f3e 8f89 0abe 7210 b0bd
00000190: d5d2 b9bd bd94 153c c600 ffbc 3020 8ebd
000001a0: 3e8b 1bbf d767 00be 5fab 183e 8b04 473e
000001b0: f101 113f fc06 203e 7d40 00bf b98d 83bf
000001c0: 299e f33e 67b1 d3be 5c24 c9bf 22a3 2b3d
000001d0: 7eb1 c4be 8546 4dbf 1f47 a2bf 56d6 45bf
000001e0: 7556 f1bf 03e1 01bf 0ce4 e7bd 6687 433f
000001f0: c101 84bf ddb6 12bf 370d adbe df18 69bf
00000200: 4f5e 36bf 0312 9abe 01be f73e 75de d73e
00000210: 27be 903e 93ea a9bb 924c bc3e caae 463c
00000220: 9cf6 e53e adbd fa3e 09b5 2fbd da9a 4ebe
00000230: 8c7d 763e bc65 253e 34bf e93d 528e 533e
00000240: 16ab 8dbc 6ba5 4bbe 71e6 3abf e80b 95bf
00000250: 4a2c 2bbf 48da c73e ae16 9bbe 6f9a 80bd
00000260: 22e5 65be 8d1f 193c 5cf5 dcbe c52b cdbe
00000270: 3923 9d3e c005 743d d8a3 633e c410 e7be
00000280: d35e 12be a6ee 033f 866a 0fbf eed6 a6be
00000290: e66a b43e b157 27be d87d 27be 2331 c23e
000002a0: 074b bc3e 96e8 80be 463f 8dbe d2e1 7dbf
000002b0: 4c6e f73d 2ef3 453f dd90 7d3f d115 c2be
000002c0: c281 e9be e64b b13e 3be4 0c3f 18d6 56bf
000002d0: aefd 143e 44fa 833f ab53 9dbf 0c11 9dbd
000002e0: d831 893e a6c9 7c3d fd2f a7b9 8b78 29bf
000002f0: 615d ccbe 0381 d23e 1f24 36bf 43e1 1a3f
00000300: 47d2 d6be 123c e5be 1353 5ebf 6233 00bf
00000310: d93a 59bf f5ec f13e 8c7b e3bd 8219 c2be
00000320: 0332 0e3e 1970 3ebe 3823 9abc 70ff 45bf
00000330: 835b a93e abd4 813e 71da 5fbe e757 453e
00000340: 60cf 113e d2cf 3b3f 6027 dc3e 3c87 64bf
00000350: a63d 15bf 0c12 8b3e f938 53be dbe9 973e
00000360: 6734 ae3e 22b8 93bf 9725 bdbf 799c b2be
00000370: 05f3 febd c8e5 8dbf 08e9 93bf 39bc 3abf
00000380: d83a efbd 852f 55bf 02ed f2be 4b88 c1bd
00000390: acaa 93bf 1eb5 3bc0 fe85 a3bf 65dc cdbf
000003a0: c92d 58bf 6196 b63e 11d6 463f 06c9 383e
000003b0: 3b3f b93e 9e0b 87bd 1d71 f2be 681e 063e
000003c0: 582d 47be 4782 493e f291 d8bd e7af 12bf
000003d0: db80 15be 94d6 5abf 7432 363f acbc 703d
000003e0: dba9 6d3e 2fb5 8d3e 88c4 c43e 39e5 cebe
000003f0: 4426 6a3e 0b9e 963e 1403 ed3d f383 cebf
0.008791646 -0.08020593 -0.23075452 0.12283442 0.21327001 0.010503209 -0.039812148 -0.7104828
-0.70443183 -0.6265894 -0.71095777 0.0024793528 -0.07146769 -0.61566544 -0.2529045 -0.46724066
-1.4513302 -0.3968304 -0.66445315 -1.0183598 0.28957394 -1.0609441 -0.8235445 -0.9417849
-0.40147883 1.0471896 0.07501735 -0.44083774 0.098623894 0.21866259 0.039887298 -0.27194387
-0.055110313 -0.7391389 -1.5909597 -0.48113608 -0.06272563 0.0011186206 0.19024315 -0.26483634
-0.8072733 -0.65393984 -0.31743222 -0.45198148 0.4781282 0.095840156 -0.53534275 -0.77350056
-0.9458136 -0.16399342 0.24203333 0.39819452 0.12375285 -0.49861574 0.36925194 -0.24369675
-0.65438163 -0.73372966 -0.36807644 -0.36577162 0.47513053 1.1397873 -0.08050788 0.16940813
0.5007101 0.5544391 0.44514155 0.23784915 0.5243882 0.9165385 -0.04942725 1.0552046
0.7920091 0.011875262 -0.70878595 0.05579452 -0.59823155 0.030747045 0.44918033 0.065295786
-1.4246513 -0.92417866 -0.8885695 -0.17097653 -0.025715748 0.36811066 -0.85932356 -1.0973833
-0.9131027 0.06920029 0.5208447 -0.1316752 0.024825336 -0.22432494 -0.111791074 -0.37421748
0.0920157 0.27975777 -0.13529037 -0.08596887 -0.09073416 0.0091297 -0.031128298 -0.06939733
-0.6075934 -0.12539612 0.14909123 0.19435327 0.5664359 0.15627664 -0.500984 -1.0277625
0.47581604 -0.41346285 -1.5714221 0.041903622 -0.38416666 -0.8018573 -1.2677954 -0.77280176
-1.885451 -0.50733966 -0.11322793 0.76378477 -1.0313035 -0.5731028 -0.33799145 -0.91053575
-0.71237653 -0.30091867 0.4838715 0.4216191 0.28270075 -0.005185434 0.3677717 0.012126634
0.4491471 0.48972836 -0.042897258 -0.20176259 0.2407133 0.1615209 0.11413422 0.2065976
-0.017293494 -0.1988732 -0.73007876 -1.1644258 -0.66864455 0.39033723 -0.3029074 -0.06279456
-0.22450688 0.009345901 -0.43155944 -0.40072456 0.30690935 0.059575796 0.2223047 -0.4512998
-0.14293985 0.51536024 -0.56021917 -0.32585853 0.35237807 -0.16342045 -0.163566 0.37928113
0.3677599 -0.2517745 -0.27587336 -0.991727 0.12081584 0.7732419 0.9904917 -0.3790727
-0.4560681 0.34628218 0.5503575 -0.8392043 0.14549896 1.031075 -1.2291158 -0.07669267
0.2679584 0.061715744 -0.00031888476 -0.6619956 -0.39914992 0.41114053 -0.71148866 0.6049997
-0.41957304 -0.44772393 -0.8684551 -0.50078404 -0.8485542 0.47251096 -0.11107549 -0.37910086
0.13886265 -0.1859745 -0.018815622 -0.7734289 0.3307763 0.25357565 -0.21860673 0.19271813
0.14239264 0.73363984 0.4299879 -0.8926885 -0.58297193 0.27162206 -0.20627202 0.29670605
0.34024355 -1.1540568 -1.4777097 -0.34885004 -0.12448696 -1.1085749 -1.155549 -0.72943455
-0.116811454 -0.83275634 -0.47446448 -0.09449824 -1.153646 -2.9329295 -1.2775266 -1.6082884
-0.8444486 0.35661605 0.7767039 0.18045434 0.36181054 -0.06594013 -0.47351924 0.13097537
-0.19450891 0.19678603 -0.10574712 -0.57299656 -0.14599936 -0.8548367 0.71170735 0.05877368
0.23209326 0.27677295 0.3843119 -0.40409258 0.2286616 0.29417452 0.11572853 -1.6134018

out.bias f4 [10]
00000000: e34d 133e e16b 843f e2d8 e1bd 934f ab3d
00000010: 30d8 b9be b9f1 0a3e bc1e 90be effc dd3e
00000020: 3679 eabe bd19 9ebe
0.1438518 1.0345422 -0.11027695 0.08364787 -0.3629775 0.13568772 -0.28148448 0.43357036
-0.45795602 -0.30879012
